code/models_Judge_regions_of_composed_comanys/judge_Regions_of_Operation_of_composedcomp.pth (torch, 341127 bytes, 5 tensors)

embedding.weight f4 [21131, 4]
000000 ac 95 88 3f 52 4c 8f 3e 69 9b 69 bf 3a 30 72 bf
       1.0670676 0.27987915 -0.9125276 -0.9460484
000010 e0 b3 cc bf a6 97 4d 3e da ab 73 3f 9e 73 c2 3e
       -1.5992393 0.2007738 0.951841 0.37978834
000020 8e df 34 bf 33 a8 fa be c3 f1 88 3f 97 e1 c6 bd
       -0.7065362 -0.4895645 1.069878 -0.097109966
000030 c6 ec 4f 3e 92 8a 95 be 66 46 1e bf 47 f5 f9 3e
       0.20305166 -0.29207283 -0.6182617 0.48819944
000040 88 42 13 bf 8a 8f 68 3e b2 5f a0 3c 54 ee cc bf
       -0.57523394 0.22711006 0.019576881 -1.6010232
000050 88 b2 b3 3e de 37 a8 3f 51 91 28 3e e1 fe fc be
       0.35097146 1.3142049 0.16461684 -0.49413207
000060 86 8e 0a c0 43 27 1d 3f 54 3a a7 3e 75 42 3e bf
       -2.164949 0.61388034 0.32661688 -0.74320155
000070 95 c3 e2 3d 90 46 2c be 61 4c b6 3f 15 b4 be 3d
       0.110724606 -0.16823792 1.4242059 0.09311692
000080 53 af e1 bf af 40 db 3c 9d f1 75 3f bb 48 e8 3e
       -1.763163 0.026764242 0.960718 0.4536799
000090 7e ad bf bf f6 93 cc bf b7 98 86 3e f4 d6 31 3e
       -1.4974821 -1.5982654 0.26288387 0.17367154
0000a0 ff 46 88 bf b6 d7 71 3e ae ae 3e 3f 43 8b dd bf
       -1.0646666 0.23617443 0.7448529 -1.7308124
0000b0 42 84 9e 3e 01 16 fc bf 03 df 0d 3f e0 4c d6 bf
       0.3096028 -1.9694215 0.55418414 -1.674221
0000c0 d9 ff 54 bf 25 f6 dd 3f 7a 13 08 c0 32 57 9f bf
       -0.8320289 1.7340742 -2.1261888 -1.2448485
0000d0 15 16 47 bc f2 4d ea be a1 ac d8 bf 54 c1 02 3e
       -0.012151261 -0.45762593 -1.6927682 0.12769061
0000e0 07 2b 3b be b5 da 2d 3f 9c f0 c4 3f 0a ee 07 be
       -0.18278132 0.67911845 1.5385928 -0.13274398
0000f0 22 06 a7 3e 83 a2 f4 bd b2 2a dc 3f 15 cc b5 bf
       0.32621866 -0.11945059 1.720053 -1.4202906
000100 35 d8 85 bd 82 21 8f 3f 6b bc 2d 3f a3 c5 ce be
       -0.06535379 1.1182101 0.6786563 -0.4038516
000110 1b ae 53 3e 3b 07 28 3f 68 4f 26 3e cd 28 0e be
       0.20671885 0.6563603 0.16241229 -0.13882752
000120 67 f1 e9 3f 03 3f 37 40 10 ef 03 3d 36 da ae 3d
       1.8276795 2.863221 0.03221041 0.08537714
000130 b9 ea 2d 3f 06 0d 57 be 31 6c 02 3f 1a ff 39 bf
       0.67936283 -0.21001062 0.50946337 -0.7265488
000140 c5 2f 14 3f ee 16 b6 bc 95 b1 03 bf 70 af fa bf
       0.5788539 -0.02222773 -0.51442844 -1.9584789
000150 c8 2c 6c be c7 1b d6 be 15 c2 f1 3e c5 90 ff 3e
       -0.23063958 -0.41818067 0.47218385 0.49915138
000160 0f 6e 9b bf ce 0f 20 3e 4e 08 62 3f 36 04 5f 3f
       -1.2142962 0.15631029 0.8829392 0.871158
000170 c4 e1 36 3f a1 7a 65 3e a3 58 f0 be cb c2 d1 3e
       0.7143824 0.2241006 -0.46942624 0.40968928
000180 bb 3f 66 be c3 b0 8a 3d 05 fb e1 be 6b c1 3b bd
       -0.22485249 0.06771996 -0.44136825 -0.045838755
000190 c7 98 a0 3f 07 07 92 3f 21 8a ad bf 2d 8a 53 be
       1.2546624 1.1408395 -1.3557779 -0.20658179
0001a0 9c 2e 1b 3f af ea d1 3f f6 d0 e9 bd 23 c7 7a 3f
       0.60617995 1.6399745 -0.11416809 0.9796011
0001b0 ed 3b 8b 3f 24 12 d8 3f 66 bc be bf 93 fd 69 bf
       1.0877663 1.6880536 -1.4901245 -0.9140255
0001c0 d7 7f 56 bf f3 e5 bf bf dd a8 8f bc 81 d9 a9 3f
       -0.8378882 -1.499205 -0.017536575 1.3269502
0001d0 9b 9c 88 be fe ee 8b 3e f5 a6 8e bf 6c 36 05 3f
       -0.2668198 0.27330774 -1.1144701 0.52036166
0001e0 a4 20 32 3f 37 89 4d be cd 67 33 be ba fe b5 bf
       0.69581056 -0.20071875 -0.17520066 -1.4218361
0001f0 f3 01 4f 3e 38 87 3a bf 5e bc a3 bf ba 13 c8 be
       0.20215587 -0.7286258 -1.279186 -0.3907755
000200 a5 6b 8f bf e7 11 6a bf bc 12 90 3f 11 6f 79 bf
       -1.1204726 -0.91433567 1.1255717 -0.974351
000210 03 b4 43 3f e9 0c db bf fa 97 6a be 6d f1 eb 3d
       0.7644655 -1.7113315 -0.22909537 0.11520658
000220 ff 7e 95 bf 32 5d cd bd 63 ca ac bf 2d c9 d5 be
       -1.1679381 -0.10027541 -1.3499264 -0.41755047
000230 f8 61 85 bf e8 08 cb 3f 9c ac 27 3f be 72 f0 3e
       -1.0420523 1.5862093 0.65497756 0.4696254
000240 19 73 8d 3f df 6c 4c bf 6e 87 ea 3f e6 37 f3 bf
       1.105075 -0.79853624 1.832258 -1.9001434
000250 b1 f2 a0 3f 6d e8 12 3e bf 8b 9e 3f aa 2b dd 3f
       1.2574064 0.14346476 1.2386397 1.727895
000260 60 30 23 3f 35 31 02 bf fd 96 d2 bf 9a 40 c9 3f
       0.6374569 -0.50856334 -1.6452328 1.572284
000270 97 78 29 bf b3 6a 1b bf d8 91 e7 bd f2 88 10 bf
       -0.6619963 -0.60709685 -0.11307114 -0.5645896
000280 f8 e7 a2 3f 67 d1 33 bf 64 ac 8a bf 9d af b2 be
       1.2727041 -0.702414 -1.083386 -0.34899607
000290 96 4b 2d be b3 5a 95 3e 6c 0b 08 3f a2 64 2e 3f
       -0.16923365 0.2917076 0.5314243 0.68122303
0002a0 b0 61 c3 bf 0c 17 27 3e 32 53 60 40 2c 7b 0f bf
       -1.5264187 0.16317385 3.5050778 -0.5604732
0002b0 b9 df 9a 3f 7c 36 44 be dd bd 4f 3e 15 f5 4b 3f
       1.2099525 -0.19161409 0.20287271 0.7967084
0002c0 ae ed a2 3f b3 ab 6a bf 6c f8 3c bf 15 67 b3 be
       1.2728784 -0.9166824 -0.7381656 -0.35039583
0002d0 9c 70 cc be ed ee 4b 3f d3 93 3c be 6d 40 84 bf
       -0.39929664 0.79661447 -0.18415765 -1.0332161
0002e0 42 33 cf bf f7 37 86 3e 28 32 c3 3e bb 87 b4 3e
       -1.6187518 0.26214573 0.38124204 0.35259804
0002f0 8d db 83 3f 0a f1 57 3f aa 61 c8 3e 96 0b 14 bf
       1.0301377 0.8435217 0.39137012 -0.5783018
000300 0b 1c ce 3f 6c 6d a0 3e d5 85 a1 be 93 0a 17 bf
       1.6102308 0.31333482 -0.31547418 -0.5900051
000310 e3 d8 cd 3f ae 98 4c 3f cd 5d 70 bf bd f6 76 3e
       1.6081814 0.7992047 -0.9389313 0.2411756
000320 74 3b 90 bf 98 1d 5e bf 4b ec 5c 3f 66 18 33 3f
       -1.1268144 -0.86763906 0.86298054 0.69959104
000330 eb e6 83 3f 30 d3 c4 3f 49 85 9a bf b0 a6 f4 3f
       1.0304846 1.5376949 -1.2071925 1.9113369
000340 b4 fc 15 c0 d1 7c 3e bd 75 d6 2d be 83 c2 89 3c
       -2.3435488 -0.046505753 -0.1697634 0.016816383
000350 13 0b 5c bf 48 0b 72 be d3 85 7f 3f cf fa 1c 3f
       -0.859544 -0.23637116 0.99813575 0.61320204
000360 d9 b9 e9 3e fd 13 ac 3f e3 5a 44 3f a8 3b 0b 3f
       0.45649603 1.34436 0.7670118 0.54387903
000370 f8 f4 99 bf 48 5e b6 bc 74 44 c6 3f d7 0d c5 bd
       -1.2027884 -0.022261754 1.548964 -0.0962178
000380 c4 1d 09 be bd 00 1e bf 4c c5 13 c0 e8 e9 96 bd
       -0.13390261 -0.61719877 -2.308917 -0.07368833
000390 26 4f 05 40 06 5b e4 bf 6e 98 86 3f 96 92 b9 be
       2.0829558 -1.7840278 1.0515268 -0.3624465
0003a0 35 62 08 40 12 b8 80 3f 9c f5 37 bf 01 62 83 3d
       2.130994 1.0056174 -0.71859145 0.06415177
0003b0 46 07 f4 3f bc 76 4f bf 5a 38 56 3e a3 43 f6 bf
       1.906472 -0.8104055 0.20919934 -1.9239391
0003c0 4d b0 ba be 59 04 14 bf c6 56 32 bc bb 42 7b 3f
       -0.36462632 -0.57819134 -0.010884946 0.981487
0003d0 3c d3 f8 3f c0 bd 96 bf 11 5f 37 3f c6 ed ce bf
       1.9439464 -1.1776657 0.71629435 -1.6166313
0003e0 01 fb 63 3f d9 ea 11 3f 54 b4 a1 bf 7c a6 f9 3e
       0.89054877 0.56998974 -1.2633157 0.4875983
0003f0 92 44 f4 3e 33 be bf 3f af ac 3e bf e7 a3 18 3f
       0.47708565 1.4979919 -0.74482244 0.59625095

fc1.weight f4 [8, 4]
000000 11 b1 fc be 2f b8 35 3f 50 1f a1 be 1b b3 e5 be
       -0.4935384 0.70984167 -0.31469202 -0.4486321
000010 57 db 23 bf 6e 2e 83 3d cc 9e 42 be 6d 6e b8 bd
       -0.6400656 0.0640534 -0.19005889 -0.09005437
000020 aa d4 40 be d1 07 23 3e 1e 9e 38 3e 55 20 00 3f
       -0.18831125 0.1592095 0.18029067 0.50049335
000030 e7 78 63 bf 63 29 bd 3d 44 cd ca be ad 77 d1 3c
       -0.8885636 0.092364095 -0.3960973 0.025569761
000040 36 42 00 3f d6 88 51 bf 81 a6 0f 3f 7d 7d eb be
       0.5010103 -0.8184942 0.5611344 -0.45994177
000050 60 d7 8d 3e 5a 89 64 3f 85 e4 9a be f8 c6 4d bf
       0.2770338 0.8927208 -0.30252472 -0.8038173
000060 36 2f 44 3e 79 e8 6b bf b1 79 3a bd 4f e8 a0 bd
       0.19158635 -0.921516 -0.04552621 -0.07856809
000070 03 cd ae 3e 01 bf 41 bf 76 1d 26 3e 45 15 7f 3d
       0.34140787 -0.75682074 0.16222176 0.062276144

fc1.bias f4 [8]
000000 8f 6d 1a 3e c7 9c 17 3f 4e 49 c0 bd e6 ed 1d be
       0.15080856 0.592236 -0.09388982 -0.15422782
000010 85 30 d0 3e af 04 2e bf b6 2a 71 be 88 4a e0 3e
       0.40662017 -0.67975897 -0.23551449 0.43806863

fc2.weight f4 [2, 8]
000000 fc 0d 90 3f ee d3 18 3f dd 87 2d 3e c3 a6 63 3e
       1.1254268 0.5969838 0.16946359 0.22231583
000010 c1 d2 b6 bf 2f 77 5d 3e 15 61 e0 be b9 fe 87 bf
       -1.4283067 0.21627496 -0.43824068 -1.062461
000020 a1 13 95 bf 71 32 08 bf 1f 0e ad 3d e8 5a 22 bf
       -1.1646615 -0.5320197 0.08449959 -0.6341996
000030 ee 01 d5 3f 37 f3 e6 be 3c ed 57 3f 5d 84 8a 3f
       1.6641214 -0.45107433 0.84346366 1.0821644

fc2.bias f4 [2]
000000 0d 07 05 bf db 65 0b 3f
       -0.51963884 0.54452294
